…
I0910 15:30:49.421526  7820 net.cpp:294] The NetState phase (0) differed from the phase (1) specified by a rule in layer mnist
I0910 15:30:49.421537  7820 net.cpp:294] The NetState phase (0) differed from the phase (1) specified by a rule in layer accuracy
I0910 15:30:49.421609  7820 net.cpp:51] Initializing net from parameters: 
name: "LeNet"
state {
  phase: TRAIN
}
layer {
  name: "mnist"
  type: "Data"
  top: "data"
  top: "label"
  include {
    phase: TRAIN
  }
  transform_param {
    scale: 0.00390625
  }
  data_param {
    source: "../../examples/mnist/mnist_train_lmdb"
    batch_size: 64
    backend: LMDB
  }
}
layer {
  name: "conv1"
  type: "Convolution"
  bottom: "data"
  top: "conv1"
  param {
    lr_mult: 1
  }
  param {
    lr_mult: 2
  }
  convolution_param {
    num_output: 20
    kernel_size: 5
    stride: 1
    weight_filler {
      type: "xavier"
    }
    bias_filler {
      type: "constant"
    }
  }
}
layer {
  name: "pool1"
  type: "Pooling"
  bottom: "conv1"
  top: "pool1"
  pooling_param {
    pool: MAX
    kernel_size: 2
    stride: 2
  }
}
layer {
  name: "conv2"
  type: "Convolution"
  bottom: "pool1"
  top: "conv2"
  param {
    lr_mult: 1
  }
  param {
    lr_mult: 2
  }
  convolution_param {
    num_output: 50
    kernel_size: 5
    stride: 1
    weight_filler {
      type: "xavier"
    }
    bias_filler {
      type: "constant"
    }
  }
}
layer {
  name: "pool2"
  type: "Pooling"
  bottom: "conv2"
  top: "pool2"
  pooling_param {
    pool: MAX
    kernel_size: 2
    stride: 2
  }
}
layer {
  name: "ip1"
  type: "InnerProduct"
  bottom: "pool2"
  top: "ip1"
  param {
    lr_mult: 1
  }
  param {
    lr_mult: 2
  }
  inner_product_param {
    num_output: 500
    weight_filler {
      type: "xavier"
    }
    bias_filler {
      type: "constant"
    }
  }
}
layer {
  name: "relu1"
  type: "ReLU"
  bottom: "ip1"
  top: "ip1"
}
layer {
  name: "ip2"
  type: "InnerProduct"
  bottom: "ip1"
  top: "ip2"
  param {
    lr_mult: 1
  }
  param {
    lr_mult: 2
  }
  inner_product_param {
    num_output: 10
    weight_filler {
      type: "xavier"
    }
    bias_filler {
      type: "constant"
    }
  }
}
layer {
  name: "loss"
  type: "SoftmaxWithLoss"
  bottom: "ip2"
  bottom: "label"
  top: "loss"
}
I0910 15:30:49.421653  7820 layer_factory.hpp:77] Creating layer mnist
I0910 15:30:49.421725  7820 db_lmdb.cpp:35] Opened lmdb ../../examples/mnist/mnist_train_lmdb
I0910 15:30:49.421759  7820 net.cpp:84] Creating Layer mnist
I0910 15:30:49.421767  7820 net.cpp:380] mnist -> data
I0910 15:30:49.421779  7820 net.cpp:380] mnist -> label
I0910 15:30:49.422523  7820 data_layer.cpp:45] output data size: 64,1,28,28
I0910 15:30:49.424603  7820 net.cpp:122] Setting up mnist
I0910 15:30:49.424615  7820 net.cpp:129] Top shape: 64 1 28 28 (50176)
I0910 15:30:49.424619  7820 net.cpp:129] Top shape: 64 (64)
I0910 15:30:49.424623  7820 net.cpp:137] Memory required for data: 200960
I0910 15:30:49.424628  7820 layer_factory.hpp:77] Creating layer conv1
I0910 15:30:49.424640  7820 net.cpp:84] Creating Layer conv1
I0910 15:30:49.424643  7820 net.cpp:406] conv1 <- data
I0910 15:30:49.424650  7820 net.cpp:380] conv1 -> conv1
I0910 15:30:51.801849  7820 net.cpp:122] Setting up conv1
I0910 15:30:51.801867  7820 net.cpp:129] Top shape: 64 20 24 24 (737280)
I0910 15:30:51.801870  7820 net.cpp:137] Memory required for data: 3150080
I0910 15:30:51.801903  7820 layer_factory.hpp:77] Creating layer pool1
I0910 15:30:51.801914  7820 net.cpp:84] Creating Layer pool1
I0910 15:30:51.801918  7820 net.cpp:406] pool1 <- conv1
I0910 15:30:51.801923  7820 net.cpp:380] pool1 -> pool1
I0910 15:30:51.801961  7820 net.cpp:122] Setting up pool1
I0910 15:30:51.801965  7820 net.cpp:129] Top shape: 64 20 12 12 (184320)
I0910 15:30:51.801967  7820 net.cpp:137] Memory required for data: 3887360
I0910 15:30:51.801970  7820 layer_factory.hpp:77] Creating layer conv2
I0910 15:30:51.801980  7820 net.cpp:84] Creating Layer conv2
I0910 15:30:51.801982  7820 net.cpp:406] conv2 <- pool1
I0910 15:30:51.801986  7820 net.cpp:380] conv2 -> conv2
I0910 15:30:51.804034  7820 net.cpp:122] Setting up conv2
I0910 15:30:51.804041  7820 net.cpp:129] Top shape: 64 50 8 8 (204800)
I0910 15:30:51.804044  7820 net.cpp:137] Memory required for data: 4706560
I0910 15:30:51.804051  7820 layer_factory.hpp:77] Creating layer pool2
I0910 15:30:51.804057  7820 net.cpp:84] Creating Layer pool2
I0910 15:30:51.804060  7820 net.cpp:406] pool2 <- conv2
I0910 15:30:51.804067  7820 net.cpp:380] pool2 -> pool2
I0910 15:30:51.804100  7820 net.cpp:122] Setting up pool2
I0910 15:30:51.804105  7820 net.cpp:129] Top shape: 64 50 4 4 (51200)
I0910 15:30:51.804106  7820 net.cpp:137] Memory required for data: 4911360
I0910 15:30:51.804109  7820 layer_factory.hpp:77] Creating layer ip1
I0910 15:30:51.804116  7820 net.cpp:84] Creating Layer ip1
I0910 15:30:51.804118  7820 net.cpp:406] ip1 <- pool2
I0910 15:30:51.804122  7820 net.cpp:380] ip1 -> ip1
I0910 15:30:51.806370  7820 net.cpp:122] Setting up ip1
I0910 15:30:51.806375  7820 net.cpp:129] Top shape: 64 500 (32000)
I0910 15:30:51.806377  7820 net.cpp:137] Memory required for data: 5039360
I0910 15:30:51.806385  7820 layer_factory.hpp:77] Creating layer relu1
I0910 15:30:51.806391  7820 net.cpp:84] Creating Layer relu1
I0910 15:30:51.806392  7820 net.cpp:406] relu1 <- ip1
I0910 15:30:51.806396  7820 net.cpp:367] relu1 -> ip1 (in-place)
I0910 15:30:51.806553  7820 net.cpp:122] Setting up relu1
I0910 15:30:51.806558  7820 net.cpp:129] Top shape: 64 500 (32000)
I0910 15:30:51.806560  7820 net.cpp:137] Memory required for data: 5167360
I0910 15:30:51.806562  7820 layer_factory.hpp:77] Creating layer ip2
I0910 15:30:51.806568  7820 net.cpp:84] Creating Layer ip2
I0910 15:30:51.806571  7820 net.cpp:406] ip2 <- ip1
I0910 15:30:51.806576  7820 net.cpp:380] ip2 -> ip2
I0910 15:30:51.807114  7820 net.cpp:122] Setting up ip2
I0910 15:30:51.807121  7820 net.cpp:129] Top shape: 64 10 (640)
I0910 15:30:51.807122  7820 net.cpp:137] Memory required for data: 5169920
I0910 15:30:51.807127  7820 layer_factory.hpp:77] Creating layer loss
I0910 15:30:51.807134  7820 net.cpp:84] Creating Layer loss
I0910 15:30:51.807137  7820 net.cpp:406] loss <- ip2
I0910 15:30:51.807139  7820 net.cpp:406] loss <- label
I0910 15:30:51.807144  7820 net.cpp:380] loss -> loss
I0910 15:30:51.807150  7820 layer_factory.hpp:77] Creating layer loss
…
I0910 15:30:51.808020  7820 solver.cpp:190] Creating test net (#0) specified by net file: ../../examples/mnist/lenet_train_test.prototxt
I0910 15:30:51.808037  7820 net.cpp:294] The NetState phase (1) differed from the phase (0) specified by a rule in layer mnist
I0910 15:30:51.808112  7820 net.cpp:51] Initializing net from parameters: 
name: "LeNet"
state {
  phase: TEST
}
layer {
  name: "mnist"
  type: "Data"
  top: "data"
  top: "label"
  include {
    phase: TEST
  }
  transform_param {
    scale: 0.00390625
  }
  data_param {
    source: "../../examples/mnist/mnist_test_lmdb"
    batch_size: 100
    backend: LMDB
  }
}
layer {
  name: "conv1"
  type: "Convolution"
  bottom: "data"
  top: "conv1"
  param {
    lr_mult: 1
  }
  param {
    lr_mult: 2
  }
  convolution_param {
    num_output: 20
    kernel_size: 5
    stride: 1
    weight_filler {
      type: "xavier"
    }
    bias_filler {
      type: "constant"
    }
  }
}
layer {
  name: "pool1"
  type: "Pooling"
  bottom: "conv1"
  top: "pool1"
  pooling_param {
    pool: MAX
    kernel_size: 2
    stride: 2
  }
}
layer {
  name: "conv2"
  type: "Convolution"
  bottom: "pool1"
  top: "conv2"
  param {
    lr_mult: 1
  }
  param {
    lr_mult: 2
  }
  convolution_param {
    num_output: 50
    kernel_size: 5
    stride: 1
    weight_filler {
      type: "xavier"
    }
    bias_filler {
      type: "constant"
    }
  }
}
layer {
  name: "pool2"
  type: "Pooling"
  bottom: "conv2"
  top: "pool2"
  pooling_param {
    pool: MAX
    kernel_size: 2
    stride: 2
  }
}
layer {
  name: "ip1"
  type: "InnerProduct"
  bottom: "pool2"
  top: "ip1"
  param {
    lr_mult: 1
  }
  param {
    lr_mult: 2
  }
  inner_product_param {
    num_output: 500
    weight_filler {
      type: "xavier"
    }
    bias_filler {
      type: "constant"
    }
  }
}
layer {
  name: "relu1"
  type: "ReLU"
  bottom: "ip1"
  top: "ip1"
}
layer {
  name: "ip2"
  type: "InnerProduct"
  bottom: "ip1"
  top: "ip2"
  param {
    lr_mult: 1
  }
  param {
    lr_mult: 2
  }
  inner_product_param {
    num_output: 10
    weight_filler {
      type: "xavier"
    }
    bias_filler {
      type: "constant"
    }
  }
}
layer {
  name: "accuracy"
  type: "Accuracy"
  bottom: "ip2"
  bottom: "label"
  top: "accuracy"
  include {
    phase: TEST
  }
}
layer {
  name: "loss"
  type: "SoftmaxWithLoss"
  bottom: "ip2"
  bottom: "label"
  top: "loss"
}
I0910 15:30:51.808161  7820 layer_factory.hpp:77] Creating layer mnist
I0910 15:30:51.808207  7820 db_lmdb.cpp:35] Opened lmdb ../../examples/mnist/mnist_test_lmdb
I0910 15:30:51.808225  7820 net.cpp:84] Creating Layer mnist
I0910 15:30:51.808230  7820 net.cpp:380] mnist -> data
I0910 15:30:51.808236  7820 net.cpp:380] mnist -> label
I0910 15:30:51.808313  7820 data_layer.cpp:45] output data size: 100,1,28,28
I0910 15:30:51.810501  7820 net.cpp:122] Setting up mnist
I0910 15:30:51.810509  7820 net.cpp:129] Top shape: 100 1 28 28 (78400)
I0910 15:30:51.810513  7820 net.cpp:129] Top shape: 100 (100)
I0910 15:30:51.810515  7820 net.cpp:137] Memory required for data: 314000
I0910 15:30:51.810518  7820 layer_factory.hpp:77] Creating layer label_mnist_1_split
I0910 15:30:51.810524  7820 net.cpp:84] Creating Layer label_mnist_1_split
I0910 15:30:51.810528  7820 net.cpp:406] label_mnist_1_split <- label
I0910 15:30:51.810533  7820 net.cpp:380] label_mnist_1_split -> label_mnist_1_split_0
I0910 15:30:51.810539  7820 net.cpp:380] label_mnist_1_split -> label_mnist_1_split_1
I0910 15:30:51.810581  7820 net.cpp:122] Setting up label_mnist_1_split
I0910 15:30:51.810588  7820 net.cpp:129] Top shape: 100 (100)
I0910 15:30:51.810591  7820 net.cpp:129] Top shape: 100 (100)
I0910 15:30:51.810593  7820 net.cpp:137] Memory required for data: 314800
I0910 15:30:51.810595  7820 layer_factory.hpp:77] Creating layer conv1
I0910 15:30:51.810605  7820 net.cpp:84] Creating Layer conv1
I0910 15:30:51.810606  7820 net.cpp:406] conv1 <- data
I0910 15:30:51.810612  7820 net.cpp:380] conv1 -> conv1
I0910 15:30:51.812476  7820 net.cpp:122] Setting up conv1
I0910 15:30:51.812484  7820 net.cpp:129] Top shape: 100 20 24 24 (1152000)
I0910 15:30:51.812495  7820 net.cpp:137] Memory required for data: 4922800
I0910 15:30:51.812503  7820 layer_factory.hpp:77] Creating layer pool1
I0910 15:30:51.812510  7820 net.cpp:84] Creating Layer pool1
I0910 15:30:51.812511  7820 net.cpp:406] pool1 <- conv1
I0910 15:30:51.812515  7820 net.cpp:380] pool1 -> pool1
I0910 15:30:51.812552  7820 net.cpp:122] Setting up pool1
I0910 15:30:51.812556  7820 net.cpp:129] Top shape: 100 20 12 12 (288000)
I0910 15:30:51.812559  7820 net.cpp:137] Memory required for data: 6074800
I0910 15:30:51.812561  7820 layer_factory.hpp:77] Creating layer conv2
I0910 15:30:51.812569  7820 net.cpp:84] Creating Layer conv2
I0910 15:30:51.812572  7820 net.cpp:406] conv2 <- pool1
I0910 15:30:51.812577  7820 net.cpp:380] conv2 -> conv2
I0910 15:30:51.814393  7820 net.cpp:122] Setting up conv2
I0910 15:30:51.814399  7820 net.cpp:129] Top shape: 100 50 8 8 (320000)
I0910 15:30:51.814402  7820 net.cpp:137] Memory required for data: 7354800
I0910 15:30:51.814409  7820 layer_factory.hpp:77] Creating layer pool2
I0910 15:30:51.814414  7820 net.cpp:84] Creating Layer pool2
I0910 15:30:51.814416  7820 net.cpp:406] pool2 <- conv2
I0910 15:30:51.814421  7820 net.cpp:380] pool2 -> pool2
I0910 15:30:51.814487  7820 net.cpp:122] Setting up pool2
I0910 15:30:51.814491  7820 net.cpp:129] Top shape: 100 50 4 4 (80000)
I0910 15:30:51.814494  7820 net.cpp:137] Memory required for data: 7674800
I0910 15:30:51.814496  7820 layer_factory.hpp:77] Creating layer ip1
I0910 15:30:51.814504  7820 net.cpp:84] Creating Layer ip1
I0910 15:30:51.814507  7820 net.cpp:406] ip1 <- pool2
I0910 15:30:51.814512  7820 net.cpp:380] ip1 -> ip1
I0910 15:30:51.816800  7820 net.cpp:122] Setting up ip1
I0910 15:30:51.816807  7820 net.cpp:129] Top shape: 100 500 (50000)
I0910 15:30:51.816809  7820 net.cpp:137] Memory required for data: 7874800
I0910 15:30:51.816817  7820 layer_factory.hpp:77] Creating layer relu1
I0910 15:30:51.816821  7820 net.cpp:84] Creating Layer relu1
I0910 15:30:51.816829  7820 net.cpp:406] relu1 <- ip1
I0910 15:30:51.816834  7820 net.cpp:367] relu1 -> ip1 (in-place)
I0910 15:30:51.817448  7820 net.cpp:122] Setting up relu1
I0910 15:30:51.817454  7820 net.cpp:129] Top shape: 100 500 (50000)
I0910 15:30:51.817456  7820 net.cpp:137] Memory required for data: 8074800
I0910 15:30:51.817459  7820 layer_factory.hpp:77] Creating layer ip2
I0910 15:30:51.817466  7820 net.cpp:84] Creating Layer ip2
I0910 15:30:51.817469  7820 net.cpp:406] ip2 <- ip1
I0910 15:30:51.817473  7820 net.cpp:380] ip2 -> ip2
I0910 15:30:51.817647  7820 net.cpp:122] Setting up ip2
I0910 15:30:51.817652  7820 net.cpp:129] Top shape: 100 10 (1000)
I0910 15:30:51.817654  7820 net.cpp:137] Memory required for data: 8078800
I0910 15:30:51.817658  7820 layer_factory.hpp:77] Creating layer ip2_ip2_0_split
I0910 15:30:51.817663  7820 net.cpp:84] Creating Layer ip2_ip2_0_split
I0910 15:30:51.817667  7820 net.cpp:406] ip2_ip2_0_split <- ip2
I0910 15:30:51.817670  7820 net.cpp:380] ip2_ip2_0_split -> ip2_ip2_0_split_0
I0910 15:30:51.817675  7820 net.cpp:380] ip2_ip2_0_split -> ip2_ip2_0_split_1
I0910 15:30:51.817704  7820 net.cpp:122] Setting up ip2_ip2_0_split
I0910 15:30:51.817708  7820 net.cpp:129] Top shape: 100 10 (1000)
I0910 15:30:51.817710  7820 net.cpp:129] Top shape: 100 10 (1000)
I0910 15:30:51.817713  7820 net.cpp:137] Memory required for data: 8086800
I0910 15:30:51.817715  7820 layer_factory.hpp:77] Creating layer accuracy
I0910 15:30:51.817721  7820 net.cpp:84] Creating Layer accuracy
I0910 15:30:51.817723  7820 net.cpp:406] accuracy <- ip2_ip2_0_split_0
I0910 15:30:51.817726  7820 net.cpp:406] accuracy <- label_mnist_1_split_0
I0910 15:30:51.817731  7820 net.cpp:380] accuracy -> accuracy
…
