…
I0913 02:13:01.476327 23443 net.cpp:294] The NetState phase (0) differed from the phase (1) specified by a rule in layer mnist
I0913 02:13:01.476336 23443 net.cpp:294] The NetState phase (0) differed from the phase (1) specified by a rule in layer accuracy
I0913 02:13:01.476387 23443 net.cpp:51] Initializing net from parameters: 
name: "LeNet"
state {
  phase: TRAIN
}
layer {
  name: "mnist"
  type: "Data"
  top: "data"
  top: "label"
  include {
    phase: TRAIN
  }
  transform_param {
    scale: 0.00390625
  }
  data_param {
    source: "../../examples/mnist/mnist_train_lmdb"
    batch_size: 64
    backend: LMDB
  }
}
layer {
  name: "conv1"
  type: "Convolution"
  bottom: "data"
  top: "conv1"
  param {
    lr_mult: 1
  }
  param {
    lr_mult: 2
  }
  convolution_param {
    num_output: 20
    kernel_size: 5
    stride: 1
    weight_filler {
      type: "xavier"
    }
    bias_filler {
      type: "constant"
    }
  }
}
layer {
  name: "pool1"
  type: "Pooling"
  bottom: "conv1"
  top: "pool1"
  pooling_param {
    pool: MAX
    kernel_size: 2
    stride: 2
  }
}
layer {
  name: "conv2"
  type: "Convolution"
  bottom: "pool1"
  top: "conv2"
  param {
    lr_mult: 1
  }
  param {
    lr_mult: 2
  }
  convolution_param {
    num_output: 50
    kernel_size: 5
    stride: 1
    weight_filler {
      type: "xavier"
    }
    bias_filler {
      type: "constant"
    }
  }
}
layer {
  name: "pool2"
  type: "Pooling"
  bottom: "conv2"
  top: "pool2"
  pooling_param {
    pool: MAX
    kernel_size: 2
    stride: 2
  }
}
layer {
  name: "ip1"
  type: "InnerProduct"
  bottom: "pool2"
  top: "ip1"
  param {
    lr_mult: 1
  }
  param {
    lr_mult: 2
  }
  inner_product_param {
    num_output: 500
    weight_filler {
      type: "xavier"
    }
    bias_filler {
      type: "constant"
    }
  }
}
layer {
  name: "relu1"
  type: "ReLU"
  bottom: "ip1"
  top: "ip1"
}
layer {
  name: "ip2"
  type: "InnerProduct"
  bottom: "ip1"
  top: "ip2"
  param {
    lr_mult: 1
  }
  param {
    lr_mult: 2
  }
  inner_product_param {
    num_output: 10
    weight_filler {
      type: "xavier"
    }
    bias_filler {
      type: "constant"
    }
  }
}
layer {
  name: "loss"
  type: "SoftmaxWithLoss"
  bottom: "ip2"
  bottom: "label"
  top: "loss"
}
I0913 02:13:01.476431 23443 layer_factory.hpp:77] Creating layer mnist
I0913 02:13:01.476471 23443 db_lmdb.cpp:35] Opened lmdb ../../examples/mnist/mnist_train_lmdb
I0913 02:13:01.476487 23443 net.cpp:84] Creating Layer mnist
I0913 02:13:01.476492 23443 net.cpp:380] mnist -> data
I0913 02:13:01.476500 23443 net.cpp:380] mnist -> label
I0913 02:13:01.477458 23443 data_layer.cpp:45] output data size: 64,1,28,28
I0913 02:13:01.479923 23443 net.cpp:122] Setting up mnist
I0913 02:13:01.479936 23443 net.cpp:129] Top shape: 64 1 28 28 (50176)
I0913 02:13:01.479939 23443 net.cpp:129] Top shape: 64 (64)
I0913 02:13:01.479943 23443 net.cpp:137] Memory required for data: 200960
I0913 02:13:01.479945 23443 layer_factory.hpp:77] Creating layer conv1
I0913 02:13:01.479955 23443 net.cpp:84] Creating Layer conv1
I0913 02:13:01.479959 23443 net.cpp:406] conv1 <- data
I0913 02:13:01.479964 23443 net.cpp:380] conv1 -> conv1
I0913 02:13:03.671357 23443 net.cpp:122] Setting up conv1
I0913 02:13:03.671375 23443 net.cpp:129] Top shape: 64 20 24 24 (737280)
I0913 02:13:03.671377 23443 net.cpp:137] Memory required for data: 3150080
I0913 02:13:03.671389 23443 layer_factory.hpp:77] Creating layer pool1
I0913 02:13:03.671399 23443 net.cpp:84] Creating Layer pool1
I0913 02:13:03.671403 23443 net.cpp:406] pool1 <- conv1
I0913 02:13:03.671443 23443 net.cpp:380] pool1 -> pool1
I0913 02:13:03.671500 23443 net.cpp:122] Setting up pool1
I0913 02:13:03.671505 23443 net.cpp:129] Top shape: 64 20 12 12 (184320)
I0913 02:13:03.671509 23443 net.cpp:137] Memory required for data: 3887360
I0913 02:13:03.671512 23443 layer_factory.hpp:77] Creating layer conv2
I0913 02:13:03.671525 23443 net.cpp:84] Creating Layer conv2
I0913 02:13:03.671527 23443 net.cpp:406] conv2 <- pool1
I0913 02:13:03.671533 23443 net.cpp:380] conv2 -> conv2
I0913 02:13:03.673717 23443 net.cpp:122] Setting up conv2
I0913 02:13:03.673724 23443 net.cpp:129] Top shape: 64 50 8 8 (204800)
I0913 02:13:03.673727 23443 net.cpp:137] Memory required for data: 4706560
I0913 02:13:03.673733 23443 layer_factory.hpp:77] Creating layer pool2
I0913 02:13:03.673739 23443 net.cpp:84] Creating Layer pool2
I0913 02:13:03.673741 23443 net.cpp:406] pool2 <- conv2
I0913 02:13:03.673745 23443 net.cpp:380] pool2 -> pool2
I0913 02:13:03.673791 23443 net.cpp:122] Setting up pool2
I0913 02:13:03.673795 23443 net.cpp:129] Top shape: 64 50 4 4 (51200)
I0913 02:13:03.673797 23443 net.cpp:137] Memory required for data: 4911360
I0913 02:13:03.673799 23443 layer_factory.hpp:77] Creating layer ip1
I0913 02:13:03.673805 23443 net.cpp:84] Creating Layer ip1
I0913 02:13:03.673807 23443 net.cpp:406] ip1 <- pool2
I0913 02:13:03.673811 23443 net.cpp:380] ip1 -> ip1
I0913 02:13:03.676273 23443 net.cpp:122] Setting up ip1
I0913 02:13:03.676280 23443 net.cpp:129] Top shape: 64 500 (32000)
I0913 02:13:03.676281 23443 net.cpp:137] Memory required for data: 5039360
I0913 02:13:03.676288 23443 layer_factory.hpp:77] Creating layer relu1
I0913 02:13:03.676293 23443 net.cpp:84] Creating Layer relu1
I0913 02:13:03.676295 23443 net.cpp:406] relu1 <- ip1
I0913 02:13:03.676300 23443 net.cpp:367] relu1 -> ip1 (in-place)
I0913 02:13:03.676460 23443 net.cpp:122] Setting up relu1
I0913 02:13:03.676465 23443 net.cpp:129] Top shape: 64 500 (32000)
I0913 02:13:03.676467 23443 net.cpp:137] Memory required for data: 5167360
I0913 02:13:03.676470 23443 layer_factory.hpp:77] Creating layer ip2
I0913 02:13:03.676476 23443 net.cpp:84] Creating Layer ip2
I0913 02:13:03.676478 23443 net.cpp:406] ip2 <- ip1
I0913 02:13:03.676482 23443 net.cpp:380] ip2 -> ip2
I0913 02:13:03.677228 23443 net.cpp:122] Setting up ip2
I0913 02:13:03.677234 23443 net.cpp:129] Top shape: 64 10 (640)
I0913 02:13:03.677237 23443 net.cpp:137] Memory required for data: 5169920
I0913 02:13:03.677242 23443 layer_factory.hpp:77] Creating layer loss
I0913 02:13:03.677248 23443 net.cpp:84] Creating Layer loss
I0913 02:13:03.677249 23443 net.cpp:406] loss <- ip2
I0913 02:13:03.677253 23443 net.cpp:406] loss <- label
I0913 02:13:03.677256 23443 net.cpp:380] loss -> loss
I0913 02:13:03.677271 23443 layer_factory.hpp:77] Creating layer loss
…
I0913 02:13:03.678184 23443 solver.cpp:190] Creating test net (#0) specified by net file: ../../examples/mnist/lenet_train_test.prototxt
I0913 02:13:03.678212 23443 net.cpp:294] The NetState phase (1) differed from the phase (0) specified by a rule in layer mnist
I0913 02:13:03.688189 23443 net.cpp:51] Initializing net from parameters: 
name: "LeNet"
state {
  phase: TEST
}
layer {
  name: "mnist"
  type: "Data"
  top: "data"
  top: "label"
  include {
    phase: TEST
  }
  transform_param {
    scale: 0.00390625
  }
  data_param {
    source: "../../examples/mnist/mnist_test_lmdb"
    batch_size: 100
    backend: LMDB
  }
}
layer {
  name: "conv1"
  type: "Convolution"
  bottom: "data"
  top: "conv1"
  param {
    lr_mult: 1
  }
  param {
    lr_mult: 2
  }
  convolution_param {
    num_output: 20
    kernel_size: 5
    stride: 1
    weight_filler {
      type: "xavier"
    }
    bias_filler {
      type: "constant"
    }
  }
}
layer {
  name: "pool1"
  type: "Pooling"
  bottom: "conv1"
  top: "pool1"
  pooling_param {
    pool: MAX
    kernel_size: 2
    stride: 2
  }
}
layer {
  name: "conv2"
  type: "Convolution"
  bottom: "pool1"
  top: "conv2"
  param {
    lr_mult: 1
  }
  param {
    lr_mult: 2
  }
  convolution_param {
    num_output: 50
    kernel_size: 5
    stride: 1
    weight_filler {
      type: "xavier"
    }
    bias_filler {
      type: "constant"
    }
  }
}
layer {
  name: "pool2"
  type: "Pooling"
  bottom: "conv2"
  top: "pool2"
  pooling_param {
    pool: MAX
    kernel_size: 2
    stride: 2
  }
}
layer {
  name: "ip1"
  type: "InnerProduct"
  bottom: "pool2"
  top: "ip1"
  param {
    lr_mult: 1
  }
  param {
    lr_mult: 2
  }
  inner_product_param {
    num_output: 500
    weight_filler {
      type: "xavier"
    }
    bias_filler {
      type: "constant"
    }
  }
}
layer {
  name: "relu1"
  type: "ReLU"
  bottom: "ip1"
  top: "ip1"
}
layer {
  name: "ip2"
  type: "InnerProduct"
  bottom: "ip1"
  top: "ip2"
  param {
    lr_mult: 1
  }
  param {
    lr_mult: 2
  }
  inner_product_param {
    num_output: 10
    weight_filler {
      type: "xavier"
    }
    bias_filler {
      type: "constant"
    }
  }
}
layer {
  name: "accuracy"
  type: "Accuracy"
  bottom: "ip2"
  bottom: "label"
  top: "accuracy"
  include {
    phase: TEST
  }
}
layer {
  name: "loss"
  type: "SoftmaxWithLoss"
  bottom: "ip2"
  bottom: "label"
  top: "loss"
}
I0913 02:13:03.688235 23443 layer_factory.hpp:77] Creating layer mnist
I0913 02:13:03.688280 23443 db_lmdb.cpp:35] Opened lmdb ../../examples/mnist/mnist_test_lmdb
I0913 02:13:03.688298 23443 net.cpp:84] Creating Layer mnist
I0913 02:13:03.688303 23443 net.cpp:380] mnist -> data
I0913 02:13:03.688309 23443 net.cpp:380] mnist -> label
I0913 02:13:03.688431 23443 data_layer.cpp:45] output data size: 100,1,28,28
I0913 02:13:03.690981 23443 net.cpp:122] Setting up mnist
I0913 02:13:03.690999 23443 net.cpp:129] Top shape: 100 1 28 28 (78400)
I0913 02:13:03.691004 23443 net.cpp:129] Top shape: 100 (100)
I0913 02:13:03.691005 23443 net.cpp:137] Memory required for data: 314000
I0913 02:13:03.691009 23443 layer_factory.hpp:77] Creating layer label_mnist_1_split
I0913 02:13:03.691015 23443 net.cpp:84] Creating Layer label_mnist_1_split
I0913 02:13:03.691017 23443 net.cpp:406] label_mnist_1_split <- label
I0913 02:13:03.691021 23443 net.cpp:380] label_mnist_1_split -> label_mnist_1_split_0
I0913 02:13:03.691026 23443 net.cpp:380] label_mnist_1_split -> label_mnist_1_split_1
I0913 02:13:03.691082 23443 net.cpp:122] Setting up label_mnist_1_split
I0913 02:13:03.691087 23443 net.cpp:129] Top shape: 100 (100)
I0913 02:13:03.691088 23443 net.cpp:129] Top shape: 100 (100)
I0913 02:13:03.691092 23443 net.cpp:137] Memory required for data: 314800
I0913 02:13:03.691093 23443 layer_factory.hpp:77] Creating layer conv1
I0913 02:13:03.691100 23443 net.cpp:84] Creating Layer conv1
I0913 02:13:03.691103 23443 net.cpp:406] conv1 <- data
I0913 02:13:03.691107 23443 net.cpp:380] conv1 -> conv1
I0913 02:13:03.693215 23443 net.cpp:122] Setting up conv1
I0913 02:13:03.693222 23443 net.cpp:129] Top shape: 100 20 24 24 (1152000)
I0913 02:13:03.693225 23443 net.cpp:137] Memory required for data: 4922800
I0913 02:13:03.693233 23443 layer_factory.hpp:77] Creating layer pool1
I0913 02:13:03.693246 23443 net.cpp:84] Creating Layer pool1
I0913 02:13:03.693249 23443 net.cpp:406] pool1 <- conv1
I0913 02:13:03.693253 23443 net.cpp:380] pool1 -> pool1
I0913 02:13:03.693300 23443 net.cpp:122] Setting up pool1
I0913 02:13:03.693305 23443 net.cpp:129] Top shape: 100 20 12 12 (288000)
I0913 02:13:03.693306 23443 net.cpp:137] Memory required for data: 6074800
I0913 02:13:03.693308 23443 layer_factory.hpp:77] Creating layer conv2
I0913 02:13:03.693315 23443 net.cpp:84] Creating Layer conv2
I0913 02:13:03.693318 23443 net.cpp:406] conv2 <- pool1
I0913 02:13:03.693322 23443 net.cpp:380] conv2 -> conv2
I0913 02:13:03.695960 23443 net.cpp:122] Setting up conv2
I0913 02:13:03.695966 23443 net.cpp:129] Top shape: 100 50 8 8 (320000)
I0913 02:13:03.695968 23443 net.cpp:137] Memory required for data: 7354800
I0913 02:13:03.695976 23443 layer_factory.hpp:77] Creating layer pool2
I0913 02:13:03.695981 23443 net.cpp:84] Creating Layer pool2
I0913 02:13:03.695983 23443 net.cpp:406] pool2 <- conv2
I0913 02:13:03.695987 23443 net.cpp:380] pool2 -> pool2
I0913 02:13:03.696030 23443 net.cpp:122] Setting up pool2
I0913 02:13:03.696034 23443 net.cpp:129] Top shape: 100 50 4 4 (80000)
I0913 02:13:03.696038 23443 net.cpp:137] Memory required for data: 7674800
I0913 02:13:03.696039 23443 layer_factory.hpp:77] Creating layer ip1
I0913 02:13:03.696044 23443 net.cpp:84] Creating Layer ip1
I0913 02:13:03.696048 23443 net.cpp:406] ip1 <- pool2
I0913 02:13:03.696050 23443 net.cpp:380] ip1 -> ip1
I0913 02:13:03.698531 23443 net.cpp:122] Setting up ip1
I0913 02:13:03.698539 23443 net.cpp:129] Top shape: 100 500 (50000)
I0913 02:13:03.698541 23443 net.cpp:137] Memory required for data: 7874800
I0913 02:13:03.698547 23443 layer_factory.hpp:77] Creating layer relu1
I0913 02:13:03.698552 23443 net.cpp:84] Creating Layer relu1
I0913 02:13:03.698555 23443 net.cpp:406] relu1 <- ip1
I0913 02:13:03.698559 23443 net.cpp:367] relu1 -> ip1 (in-place)
I0913 02:13:03.699172 23443 net.cpp:122] Setting up relu1
I0913 02:13:03.699178 23443 net.cpp:129] Top shape: 100 500 (50000)
I0913 02:13:03.699180 23443 net.cpp:137] Memory required for data: 8074800
I0913 02:13:03.699183 23443 layer_factory.hpp:77] Creating layer ip2
I0913 02:13:03.699190 23443 net.cpp:84] Creating Layer ip2
I0913 02:13:03.699193 23443 net.cpp:406] ip2 <- ip1
I0913 02:13:03.699198 23443 net.cpp:380] ip2 -> ip2
I0913 02:13:03.699355 23443 net.cpp:122] Setting up ip2
I0913 02:13:03.699360 23443 net.cpp:129] Top shape: 100 10 (1000)
I0913 02:13:03.699362 23443 net.cpp:137] Memory required for data: 8078800
I0913 02:13:03.699367 23443 layer_factory.hpp:77] Creating layer ip2_ip2_0_split
I0913 02:13:03.699371 23443 net.cpp:84] Creating Layer ip2_ip2_0_split
I0913 02:13:03.699373 23443 net.cpp:406] ip2_ip2_0_split <- ip2
I0913 02:13:03.699378 23443 net.cpp:380] ip2_ip2_0_split -> ip2_ip2_0_split_0
I0913 02:13:03.699381 23443 net.cpp:380] ip2_ip2_0_split -> ip2_ip2_0_split_1
I0913 02:13:03.699420 23443 net.cpp:122] Setting up ip2_ip2_0_split
I0913 02:13:03.699424 23443 net.cpp:129] Top shape: 100 10 (1000)
I0913 02:13:03.699426 23443 net.cpp:129] Top shape: 100 10 (1000)
I0913 02:13:03.699429 23443 net.cpp:137] Memory required for data: 8086800
I0913 02:13:03.699430 23443 layer_factory.hpp:77] Creating layer accuracy
I0913 02:13:03.699435 23443 net.cpp:84] Creating Layer accuracy
I0913 02:13:03.699437 23443 net.cpp:406] accuracy <- ip2_ip2_0_split_0
I0913 02:13:03.699440 23443 net.cpp:406] accuracy <- label_mnist_1_split_0
I0913 02:13:03.699445 23443 net.cpp:380] accuracy -> accuracy
…
